…
            "3":
                - 13
                - 22
                - 23
                - 35
                - 55
            "4": 3.12.0
            "5": 0.19.9
            "8":
                - 3
                - 5
            "12": 0.19.9
            "13": windows-amd64
action_noise:
    value: None
action_space:
    value: Box([-50.  -50.   -0.5], [130.  130.    0.5], (3,), float32)
actor:
    value: |-
        Actor(
          (features_extractor): FlattenExtractor(
            (flatten): Flatten(start_dim=1, end_dim=-1)
          )
          (latent_pi): Sequential(
            (0): Linear(in_features=32, out_features=256, bias=True)
            (1): ReLU()
            (2): Linear(in_features=256, out_features=256, bias=True)
            (3): ReLU()
          )
          (mu): Linear(in_features=256, out_features=3, bias=True)
          (log_std): Linear(in_features=256, out_features=3, bias=True)
        )
algo:
    value: SAC
batch_norm_stats:
    value: '[]'
batch_norm_stats_target:
    value: '[]'
batch_size:
    value: 256
buffer_size:
    value: 1000000
critic:
    value: |-
        ContinuousCritic(
          (features_extractor): FlattenExtractor(
            (flatten): Flatten(start_dim=1, end_dim=-1)
          )
          (qf0): Sequential(
            (0): Linear(in_features=35, out_features=256, bias=True)
            (1): ReLU()
            (2): Linear(in_features=256, out_features=256, bias=True)
            (3): ReLU()
            (4): Linear(in_features=256, out_features=1, bias=True)
          )
          (qf1): Sequential(
            (0): Linear(in_features=35, out_features=256, bias=True)
            (1): ReLU()
            (2): Linear(in_features=256, out_features=256, bias=True)
            (3): ReLU()
            (4): Linear(in_features=256, out_features=1, bias=True)
          )
        )
critic_target:
    value: |-
        ContinuousCritic(
          (features_extractor): FlattenExtractor(
            (flatten): Flatten(start_dim=1, end_dim=-1)
          )
          (qf0): Sequential(
            (0): Linear(in_features=35, out_features=256, bias=True)
            (1): ReLU()
            (2): Linear(in_features=256, out_features=256, bias=True)
            (3): ReLU()
            (4): Linear(in_features=256, out_features=1, bias=True)
          )
          (qf1): Sequential(
            (0): Linear(in_features=35, out_features=256, bias=True)
            (1): ReLU()
            (2): Linear(in_features=256, out_features=256, bias=True)
            (3): ReLU()
            (4): Linear(in_features=256, out_features=1, bias=True)
          )
        )
device:
    value: cuda
ent_coef:
    value: auto
ent_coef_optimizer:
    value: |-
        Adam (
        Parameter Group 0
            amsgrad: False
            betas: (0.9, 0.999)
            capturable: False
            differentiable: False
            eps: 1e-08
            foreach: None
            fused: None
            lr: 0.0003
…
